…
Starting KNN evaluation with K=20[21:58:18.673964] Starting KNN evaluation with K=20
[21:58:18.675051] [21:58:18.675071] [21:58:18.675080] Starting KNN evaluation with K=20
Starting KNN evaluation with K=20
[21:58:18.675108] Starting KNN evaluation with K=20Starting KNN evaluation with K=20


[21:58:20.095393] Eval data mean (should be near 0): tensor(0.9195)
[21:58:20.169338] Eval data std (should be near 1): tensor(0.9125)
[21:58:20.199850] Eval data mean (should be near 0): [21:58:20.200650] Start training for 800 epochs
tensor(0.9465)
[21:58:20.202894] Model = MaskedAutoencoderViT(
  (patch_embed): PatchEmbedUnSafe(
    (proj): Conv2d(3, 768, kernel_size=(16, 16), stride=(16, 16))
    (norm): Identity()
  )
  (blocks): ModuleList(
    (0-11): 12 x Block(
      (norm1): LayerNorm((768,), eps=1e-06, elementwise_affine=True)
      (attn): Attention(
        (qkv): Linear(in_features=768, out_features=2304, bias=True)
        (q_norm): Identity()
        (k_norm): Identity()
        (attn_drop): Dropout(p=0.0, inplace=False)
        (norm): Identity()
        (proj): Linear(in_features=768, out_features=768, bias=True)
        (proj_drop): Dropout(p=0.0, inplace=False)
      )
      (ls1): Identity()
      (drop_path1): Identity()
      (norm2): LayerNorm((768,), eps=1e-06, elementwise_affine=True)
      (mlp): Mlp(
        (fc1): Linear(in_features=768, out_features=3072, bias=True)
        (act): GELU(approximate='none')
        (drop1): Dropout(p=0.0, inplace=False)
        (norm): Identity()
        (fc2): Linear(in_features=3072, out_features=768, bias=True)
        (drop2): Dropout(p=0.0, inplace=False)
      )
      (ls2): Identity()
      (drop_path2): Identity()
    )
  )
  (norm): LayerNorm((768,), eps=1e-06, elementwise_affine=True)
  (decoder_embed): Linear(in_features=768, out_features=512, bias=True)
  (fpn): FPNHead(
    (fpn1): Sequential(
      (0): ConvTranspose2d(512, 512, kernel_size=(2, 2), stride=(2, 2))
      (1): Norm2d(
        (ln): LayerNorm((512,), eps=1e-06, elementwise_affine=True)
      )
      (2): GELU(approximate='none')
      (3): ConvTranspose2d(512, 512, kernel_size=(2, 2), stride=(2, 2))
    )
    (fpn2): Sequential(
      (0): ConvTranspose2d(512, 512, kernel_size=(2, 2), stride=(2, 2))
    )
  )
  (fcn_high): FCNHead(
    (proj): Conv2d(512, 512, kernel_size=(1, 1), stride=(1, 1))
    (conv_blocks): Sequential(
      (0): HFFB(
        (convs): Sequential(
          (0): GELU(approximate='none')
          (1): Conv2d(512, 256, kernel_size=(3, 3), stride=(1, 1), padding=(1, 1), groups=256)
          (2): GELU(approximate='none')
          (3): Conv2d(256, 512, kernel_size=(1, 1), stride=(1, 1))
        )
        (residual): Conv2d(512, 512, kernel_size=(1, 1), stride=(1, 1))
      )
      (1): HFFB(
        (convs): Sequential(
          (0): GELU(approximate='none')
          (1): Conv2d(512, 256, kernel_size=(3, 3), stride=(1, 1), padding=(1, 1), groups=256)
          (2): GELU(approximate='none')
          (3): Conv2d(256, 512, kernel_size=(1, 1), stride=(1, 1))
        )
        (residual): Conv2d(512, 512, kernel_size=(1, 1), stride=(1, 1))
      )
    )
    (pred): Sequential(
      (0): Norm2d(
        (ln): LayerNorm((512,), eps=1e-06, elementwise_affine=True)
      )
      (1): ConvTranspose2d(512, 256, kernel_size=(4, 4), stride=(4, 4))
      (2): GELU(approximate='none')
      (3): Conv2d(256, 128, kernel_size=(3, 3), stride=(1, 1), padding=(1, 1), groups=128)
      (4): GELU(approximate='none')
      (5): Conv2d(128, 256, kernel_size=(1, 1), stride=(1, 1))
      (6): GELU(approximate='none')
      (7): ConvTranspose2d(256, 3, kernel_size=(2, 2), stride=(2, 2))
    )
  )
  (fcn_low): FCNHead(
    (proj): Conv2d(512, 512, kernel_size=(1, 1), stride=(1, 1))
    (conv_blocks): Sequential(
      (0): HFFB(
        (convs): Sequential(
          (0): GELU(approximate='none')
          (1): Conv2d(512, 256, kernel_size=(3, 3), stride=(1, 1), padding=(1, 1), groups=256)
          (2): GELU(approximate='none')
          (3): Conv2d(256, 512, kernel_size=(1, 1), stride=(1, 1))
        )
        (residual): Conv2d(512, 512, kernel_size=(1, 1), stride=(1, 1))
      )
      (1): HFFB(
        (convs): Sequential(
          (0): GELU(approximate='none')
          (1): Conv2d(512, 256, kernel_size=(3, 3), stride=(1, 1), padding=(1, 1), groups=256)
          (2): GELU(approximate='none')
          (3): Conv2d(256, 512, kernel_size=(1, 1), stride=(1, 1))
        )
        (residual): Conv2d(512, 512, kernel_size=(1, 1), stride=(1, 1))
      )
    )
    (pred): Sequential(
      (0): Norm2d(
        (ln): LayerNorm((512,), eps=1e-06, elementwise_affine=True)
      )
      (1): ConvTranspose2d(512, 256, kernel_size=(4, 4), stride=(4, 4))
      (2): GELU(approximate='none')
      (3): Conv2d(256, 128, kernel_size=(3, 3), stride=(1, 1), padding=(1, 1), groups=128)
      (4): GELU(approximate='none')
      (5): Conv2d(128, 256, kernel_size=(1, 1), stride=(1, 1))
      (6): GELU(approximate='none')
      (7): ConvTranspose2d(256, 3, kernel_size=(2, 2), stride=(2, 2))
    )
  )
  (decoder_blocks): ModuleList(
    (0-2): 3 x Block(
      (norm1): LayerNorm((512,), eps=1e-06, elementwise_affine=True)
      (attn): Attention(
        (qkv): Linear(in_features=512, out_features=1536, bias=True)
        (q_norm): Identity()
        (k_norm): Identity()
        (attn_drop): Dropout(p=0.0, inplace=False)
        (norm): Identity()
        (proj): Linear(in_features=512, out_features=512, bias=True)
        (proj_drop): Dropout(p=0.0, inplace=False)
      )
      (ls1): Identity()
      (drop_path1): Identity()
      (norm2): LayerNorm((512,), eps=1e-06, elementwise_affine=True)
      (mlp): Mlp(
        (fc1): Linear(in_features=512, out_features=2048, bias=True)
        (act): GELU(approximate='none')
        (drop1): Dropout(p=0.0, inplace=False)
        (norm): Identity()
        (fc2): Linear(in_features=2048, out_features=512, bias=True)
        (drop2): Dropout(p=0.0, inplace=False)
      )
      (ls2): Identity()
      (drop_path2): Identity()
    )
  )
  (decoder_norm): LayerNorm((512,), eps=1e-06, elementwise_affine=True)
)
[21:58:20.207459] base lr: 1.50e-04
[21:58:20.208227] actual lr: 2.25e-04
[21:58:20.210224] accumulate grad iterations: 1
[21:58:20.212564] effective batch size: 384
[21:58:20.218725] Starting KNN evaluation with K=20
[21:58:20.306250] Eval data std (should be near 1): tensor(0.9538)
[21:58:20.401830] Eval data mean (should be near 0): tensor(0.8741)
[21:58:20.391205] Eval data mean (should be near 0): [21:58:20.422378] Eval data mean (should be near 0): tensor(0.8818)
…
